results/parcellation_model.pth (torch, 14390 bytes, 6 tensors)

conv1.weight f4 [16, 3, 3]
0	0xbd72c970	-0.059274137
1	0x3e90b806	0.282654
2	0x3bd4d3c4	0.006494971
3	0xbbb3e3a0	-0.0054897815
4	0xbc470a47	-0.012148446
5	0xbe19be4d	-0.15014
6	0x3e326665	0.17421873
7	0x3e7e4b8d	0.24833508
8	0x3e6f7c7a	0.23387328
9	0x3eadce9e	0.339467
10	0x3e724f7c	0.23663133
11	0xbe35aea5	-0.17742403
12	0xbe6d4c5c	-0.2317366
13	0x3daf5743	0.08561566
14	0xbe835689	-0.2565196
15	0xbe40e1fd	-0.18836208
16	0xbdfa18d3	-0.12211766
17	0xbeaa589e	-0.33270735
18	0x3dc29b87	0.09502321
19	0x3dd9d74e	0.10636769
20	0x3ea68cdc	0.32529342
21	0x3e115099	0.14190902
22	0xbc9221d6	-0.0178384
23	0x3edceb1a	0.43148118
24	0xbc72a9e3	-0.014811012
25	0x3e929cf6	0.28635377
26	0x3d8282bc	0.06372592
27	0xbd5875d4	-0.052846745
28	0xbe8aead0	-0.27132273
29	0xbe400946	-0.18753538
30	0xbe0a3a49	-0.13498797
31	0xbdb40c71	-0.087914355
32	0x3eea5432	0.4576736
33	0x393bd79a	0.00017914028
34	0x3d6dfac5	0.05810048
35	0x3c01b2ab	0.007916133
36	0x3b2e7e86	0.0026625707
37	0x3e908774	0.28228343
38	0x3e985196	0.29749745
39	0xbe197a5b	-0.14988081
40	0x3e1db52a	0.1540114
41	0x3e782da4	0.2423616
42	0xbebf210b	-0.37329897
43	0xbe60cfd7	-0.21954285
44	0xbe906271	-0.28200105
45	0x3d8a1daa	0.06743939
46	0x3e69d35f	0.22834538
47	0x3dc771be	0.097384915
48	0xbdde072d	-0.108412124
49	0x3f00cab1	0.5030928
50	0x3ea61dcb	0.32444605
51	0x3ce97567	0.028498365
52	0x3e2579eb	0.1615979
53	0xbc054e72	-0.008136379
54	0xbe0ee11f	-0.13953064
55	0x3c2cf827	0.010557211
56	0xbd9a5667	-0.07536011
57	0xbe6ae061	-0.22937156
58	0xbecf2f26	-0.4046566
59	0xbe3a97de	-0.18221995
60	0xbe0950c3	-0.13409714
61	0x3e806a53	0.2508112
62	0x3db5fc60	0.08886027
63	0x3eae1114	0.33997405
64	0x3e541292	0.20710209
65	0xbdf40e09	-0.119167395
66	0x3eb493d1	0.35269025
67	0xbe20fdb1	-0.15721776
68	0xbd1b5342	-0.037921198
69	0x3e116442	0.14198402
70	0x3ea31cdf	0.31857964
71	0xbe8f1156	-0.27942914
72	0x3daed594	0.085368305
73	0xbd860988	-0.06544787
74	0xbd761c85	-0.060085792
75	0xbd54cf21	-0.051955346
76	0x3e8fb6b5	0.28069082
77	0x3ed51804	0.41619885
78	0xbe8989b0	-0.2686286
79	0xbde16d97	-0.11007231
80	0xbe0797ee	-0.1324155
81	0x3e2bfde2	0.16796067
82	0xbe732eb1	-0.2374828
83	0xbe31f27e	-0.1737766
84	0x3eadfaae	0.33980316
85	0xbd342775	-0.04398294
86	0xbdedf32e	-0.116186485
87	0x3e9eb60c	0.30998266
88	0x3e4ba118	0.19885671
89	0x3e25a628	0.16176665
90	0x3ea5274e	0.3225655
91	0x3e738db1	0.2378452
92	0x3eace624	0.33769333
93	0x3b662f3b	0.0035123366
94	0x3df213b7	0.118201666
95	0xbc5eccc3	-0.013598624
96	0x3d1ec88b	0.03876547
97	0x3e882be0	0.26595974
98	0xbdebf002	-0.11520387
99	0xbed1dd81	-0.40989307
100	0xbed9226f	-0.42409083
101	0x3b936319	0.0044978973
102	0xbe3fe99c	-0.18741459
103	0x3df06585	0.11738113
104	0xbe29a2d6	-0.16566023
105	0xbe274cbf	-0.1633787
106	0xbe3d7724	-0.1850248
107	0x3e189d45	0.14903744
108	0xbe9a204b	-0.30102763
109	0xbe5e4d8f	-0.21709274
110	0x3e14bce8	0.14525187
111	0xbd1b6534	-0.03793831
112	0x3e892b57	0.26790878
113	0x3b66beee	0.0035209018
114	0x3eae9ea9	0.34105423
115	0x3e847baf	0.25875613
116	0xbcb0a8b4	-0.021564819
117	0x3da49b91	0.080374844
118	0x3e7c5d1c	0.24644893
119	0x3d5f2138	0.05447504
120	0x3e8e9611	0.27848867
121	0x3e2cb3b2	0.16865423
122	0x3c5f61b4	0.013634134
123	0x3e879456	0.2648036
124	0x3e4c6eac	0.19964093
125	0x3dd3f6dc	0.10349819
126	0xbdf2438a	-0.11829288
127	0x3e95d37f	0.2926292
128	0xbe30c173	-0.17261295
129	0x3d4eaf5b	0.0504602
130	0xbf0b9cb6	-0.54535997
131	0x3ddda279	0.10822005
132	0x3ea9ae83	0.33140954
133	0xbe7df29a	-0.24799576
134	0x39712362	0.00022996732
135	0xbea03d1e	-0.3129663
136	0xbe153116	-0.14569506
137	0x3dd7a14f	0.10528814
138	0xbe15413e	-0.14575669
139	0x3e8d2ecb	0.27574763
140	0xbea22395	-0.31667772
141	0xbe3bfef0	-0.1835897
142	0xbe2cc996	-0.16873774
143	0x3dddfd28	0.10839301

conv1.bias f4 [16]
0	0xbdacbf93	-0.084349774
1	0xbdc40178	-0.09570593
2	0xbe30752c	-0.17232198
3	0x3dac5db1	0.08416308
4	0x3e7127cc	0.23550338
5	0x3d411793	0.047141623
6	0x3df363e3	0.11884286
7	0x3ca3ea2a	0.020009119
8	0x3d2b4113	0.041810106
9	0xbe2bd649	-0.16780962
10	0xba923a53	-0.0011156298
11	0x3e063ff9	0.13110341
12	0xbda13ccd	-0.07872925
13	0xbe07238a	-0.13197151
14	0x3e8fa4a1	0.2805529
15	0xbe6f38a6	-0.23361453

conv2.weight f4 [32, 16, 3]
0	0xbdddc150	-0.10827887
1	0xbcca3114	-0.024681605
2	0xbdcc86eb	-0.09986671
3	0x3d8443f9	0.06458277
4	0x3e7609b8	0.24027145
5	0x3d8dd33f	0.069250576
6	0x3df53a0e	0.11973964
7	0xbd3a24fb	-0.045445424
8	0xbc1aad38	-0.009440713
9	0x3caa3d16	0.020781081
10	0xbe0d5517	-0.1380199
11	0xbe04877d	-0.1294231
12	0x3e30438d	0.17213269
13	0x3d620b54	0.055186585
14	0xbcded917	-0.027203126
15	0x3da566d1	0.08076251
16	0xbc762e71	-0.015025721
17	0x3d986a08	0.07442099
18	0xbcd5bc4a	-0.02609076
19	0xbe09a589	-0.13442053
20	0xbe0978a9	-0.13424934
21	0x3c71d9cf	0.014761402
22	0x3cec4478	0.028841242
23	0xbbc4c7c3	-0.0060052588
24	0x3e2bd647	0.16780959
25	0x3e148d85	0.1450711
26	0x3d8dead3	0.06929555
27	0x3d3b3b9f	0.045711156
28	0xbd6cb467	-0.057789233
29	0x3e1997f6	0.14999375
30	0x3bbc522a	0.0057470994
31	0xbdf18e5e	-0.117947325
32	0xbd508137	-0.05090448
33	0xbdd3d07f	-0.10342502
34	0x3d09c5af	0.03363579
35	0xbc917622	-0.017756525
36	0x3e3fc0fe	0.18725964
37	0x3da5e40f	0.08100139
38	0x3d82c69a	0.063855365
39	0xbd3fe545	-0.046849508
40	0x3d83fda7	0.06444865
41	0xbe0ed363	-0.13947825
42	0x3e0109ae	0.12601349
43	0xbe4939e5	-0.19650991
44	0x3d6838f9	0.05669496
45	0xbd595d95	-0.053067762
46	0x3cd23961	0.025662126
47	0xbda71fce	-0.08160363
48	0x3c79b36e	0.015240533
49	0xbd5a29f2	-0.05326266
50	0xbd32ea02	-0.0436802
51	0x3cbb3550	0.02285257
52	0x3e35ac2b	0.17741458
53	0xbca195cb	-0.019724747
54	0x3e6280c3	0.22119431
55	0xbda996a6	-0.08280687
56	0x3ce7afd8	0.028282091
57	0x3e30b8f8	0.1725806
58	0x3c02613a	0.007957751
59	0x3a475b9a	0.0007604897
60	0x3c15feb9	0.009154969
61	0xbd038a71	-0.03211445
62	0xbd3f611e	-0.046723478
63	0x3e635a5b	0.22202437
64	0x3e67c092	0.22632053
65	0xbcfc8142	-0.030823354
66	0xbdc527ee	-0.096267566
67	0xbe227092	-0.15863255
68	0x3cf320cc	0.029678725
69	0x3cc90daf	0.024542658
70	0xbd42e1fe	-0.047578804
71	0x3c1b4938	0.009477906
72	0x3e77b420	0.24189806
73	0x3e2362ff	0.15955733
74	0x3c7da4bc	0.01548117
75	0x3c968328	0.018373087
76	0xbdcb8d28	-0.09939033
77	0xbd79c5ad	-0.060979534
78	0xbd10330d	-0.035204936
79	0xbd3ec8ee	-0.04657834
80	0xbbe3f68f	-0.0069568823
81	0xbd8a8644	-0.067638904
82	0x3e36f3e4	0.17866474
83	0x3e08f667	0.13375245
84	0x3d556a0e	0.052103095
85	0xbd7d279d	-0.061805356
86	0xbc240b8d	-0.01001252
87	0xbdd7496d	-0.10512052
88	0xbc5d3a04	-0.0135026015
89	0x3e4ef36e	0.20210049
90	0x3bbe983c	0.0058164876
91	0xbddd3824	-0.108017236
92	0x3c656537	0.014001182
93	0x3b83dc2e	0.00402405
94	0x3e813163	0.25232992
95	0xbd982323	-0.07428577
96	0x3d2104d0	0.03931123
97	0x3cd0c092	0.02548245
98	0xbce8d150	-0.02842012
99	0xbce4323c	-0.027855985
100	0x3e3498c6	0.17636403
101	0xbdde390b	-0.10850724
102	0x3ddf2c2b	0.10897096
103	0xbd7687d4	-0.06018813
104	0xbba4a309	-0.005024318
105	0xba0f1f72	-0.0005459703
106	0x3da3fc02	0.08007051
107	0xbe1156ca	-0.14193264
108	0x3d6bac36	0.05753728
109	0xbd2eda67	-0.042688753
110	0xbda5d1b5	-0.08096639
111	0xbd00e18b	-0.031465095
112	0x3e3cea50	0.18448758
113	0xbe04ac31	-0.12956311
114	0xbe1da8af	-0.15396379
115	0xbe23308b	-0.15936486
116	0xbe337a8e	-0.1752722
117	0xbc51695c	-0.012781467
118	0xbc6663f2	-0.014061915
119	0x3e36733d	0.17817397
120	0xbbb0b2dc	-0.0053924154
121	0xbd9c5e31	-0.07635153
122	0xbcc1a9c5	-0.023640523
123	0xbe3aa583	-0.182272
124	0xbbac583e	-0.0052595427
125	0x3b939c72	0.0045047337
126	0x3d9ab6a5	0.07554368
127	0x3ddab2c2	0.106786266
128	0x3e227e10	0.15868402
129	0x3e097939	0.13425149
130	0xbd8904a0	-0.06690335
131	0xbdd584e8	-0.104257405
132	0xbdd7c00a	-0.105346754
133	0xbdcba7aa	-0.09944089
134	0xbe69b617	-0.22823368
135	0x3d7059e6	0.058679484
136	0x3d467052	0.04844696
137	0x3e0f66be	0.14004037
138	0xbdd5104c	-0.10403499
139	0xbd52d704	-0.051474586
140	0xbe371784	-0.17880064
141	0x3d698368	0.057010084
142	0xbcb40f49	-0.021979945
143	0xbdf91719	-0.12162609
144	0x3dd6f27c	0.10495469
145	0x3e1bae9b	0.15203325
146	0xbcdb0117	-0.026733918
147	0x3cc1f513	0.02367643
148	0x3d4d4094	0.050110415
149	0xbdf82a5f	-0.12117457
150	0x3bda3017	0.006658565
151	0x3e357072	0.17718676
152	0x3c044986	0.00807417
153	0x3d9d687d	0.07685945
154	0x3df6163a	0.12015958
155	0x3ceef7d2	0.029170904
156	0xbb5370c6	-0.0032263263
157	0xbd6c4025	-0.05767836
158	0xbd68575d	-0.05672394
159	0x3deb4cff	0.11489295
160	0x3e45b2b4	0.19306451
161	0xbcedadb8	-0.0290135
162	0x3d04ebe2	0.032451518
163	0x3df7e84a	0.121048525
164	0x3e1641bd	0.14673515
165	0x3c8dbec6	0.017302882
166	0xbc681cce	-0.014167024
167	0x3d9f28dd	0.07771466
168	0xbcbd37c8	-0.023097888
169	0xbcbfe7e1	-0.023425998
170	0x3db8ce81	0.090237625
171	0x3deb688c	0.1149455
172	0xbcd5cd51	-0.026098879
173	0xbb455a21	-0.0030113535
174	0x3e2c8a5e	0.16849658
175	0xbbbb378f	-0.00571341
176	0x3c95f847	0.018306864
177	0x3dd92eaa	0.106046036
178	0xbdd897cc	-0.10575828
179	0xbd6eada3	-0.05827106
180	0x3cfebcc9	0.03109588
181	0xbe228828	-0.15872252
182	0xbd86dde1	-0.06585289
183	0xbc8c3c94	-0.01711873
184	0xbcdaf3d7	-0.0267276
185	0x3d82419a	0.06360169
186	0x3e22ca42	0.15897468
187	0x3e1b89ad	0.15189238
188	0x3d9066fb	0.07050892
189	0x3d3a2c66	0.045452498
190	0xbe411b23	-0.18858008
191	0x3c92d29b	0.01792269
192	0xbe1ac354	-0.15113574
193	0x3e01cfa4	0.12676865
194	0xbc811130	-0.015755266
195	0xbdedf2fb	-0.116186105
196	0x3dddd467	0.10831528
197	0x3c2a86a5	0.010408078
198	0x3da208fb	0.07911869
199	0xbd4c5c3f	-0.04989266
200	0x3df782c8	0.120854914
201	0x3d984aa7	0.07436114
202	0x3d4dd61d	0.050253022
203	0x3d28408f	0.041077193
204	0xbdafe03f	-0.085876934
205	0xbd4e4674	-0.050360158
206	0xbd09f74b	-0.033683103
207	0x3d7ab90e	0.06121164
208	0x3e2402b4	0.16016656
209	0x3c94f428	0.018182829
210	0xbd98dbfe	-0.07463835
211	0x3d6a264a	0.05716542
212	0xbd5b6930	-0.05356711
213	0x3daffdd7	0.08593338
214	0x3d829aa1	0.063771494
215	0xbc065acf	-0.008200361
216	0x3cebb095	0.028770724
217	0x3b4001bf	0.0029297916
218	0xbc63c7b5	-0.013902594
219	0xbe11d6d4	-0.14242107
220	0xbd4a6c37	-0.049419608
221	0x3df85b57	0.12126797
222	0x3d86d1c8	0.06582981
223	0x3e10b476	0.1413134
224	0x3da9af47	0.082853846
225	0xbdb239c9	-0.08702428
226	0xbddad3b0	-0.106849074
227	0xbe35f7ac	-0.1777026
228	0x3d7fc52f	0.06244391
229	0xbd0c5da0	-0.034268975
230	0xbe4e054f	-0.20119213
231	0xbd9a1a89	-0.075245924
232	0x3d8db1eb	0.06918701
233	0x3dd155e2	0.10221459
234	0x3d36ba5a	0.044611312
235	0x3dd1fe1b	0.10253545
236	0xbd42facb	-0.047602456
237	0x3dabd6cb	0.08390578
238	0x3d62cdf1	0.055372182
239	0xbd09b135	-0.033616263
240	0xbe3a604b	-0.18200795
241	0xbe075336	-0.13215336
242	0xbde6f7e1	-0.11277748
243	0x3de99473	0.114052676
244	0xbdb06ec4	-0.08614877
245	0x3dd9d97e	0.106371865
246	0x3d6333c8	0.055469304
247	0x3b566646	0.0032714768
248	0xbd44ab2a	-0.048014797
249	0x3dc1d269	0.09463961
250	0xbd161c6a	-0.03664819
251	0x3dc73726	0.097273156
252	0x3e0b8b14	0.13627273
253	0x3dcc4e15	0.099758305
254	0x3d893e22	0.06701304
255	0xbda99870	-0.08281028

conv2.bias f4 [32]
0	0xbde781a2	-0.11304022
1	0x3e05c19f	0.13062142
2	0xbdbe9c95	-0.093072094
3	0x3e7a1a69	0.24424137
4	0x3c9d8dd8	0.019232675
5	0x3d6d5f41	0.05795217
6	0x3dc302f1	0.095220454
7	0x3e29f475	0.16597159
8	0xbda3dddf	-0.08001303
9	0x3d3696b1	0.044577304
10	0x3df9229f	0.121648066
11	0x3dc2602e	0.09491001
12	0xbc22c3e9	-0.009934404
13	0x3c707df6	0.014678469
14	0xbe023e9c	-0.12719196
15	0xbda5db2d	-0.08098445
16	0x3e034c7f	0.1282215
17	0x3de18a54	0.11012712
18	0x3d65506e	0.055984907
19	0xbda67bf8	-0.08129114
20	0x3d868a69	0.065693684
21	0xbdb1bb97	-0.08678358
22	0x3eac509f	0.3365526
23	0xbd04ac6f	-0.032391008
24	0x3e8713a3	0.2638217
25	0xbd71da4f	-0.059046086
26	0xbda14cf1	-0.078760035
27	0x3e951f9c	0.2912568
28	0x3ded4822	0.11586024
29	0x3e8a72db	0.27040753
30	0x3e0be166	0.13660201
31	0x3dc2173b	0.09477087

conv3.weight f4 [36, 32, 1]
0	0xbc06fc60	-0.008238882
1	0xbe7866c3	-0.2425795
2	0x3d80961f	0.06278633
3	0xbe518bd6	-0.204635
4	0x3e016d07	0.12639247
5	0xbd1222e3	-0.0356778
6	0x3d3b4c35	0.045726974
7	0xbd4aca35	-0.049509246
8	0xbcab17ab	-0.02088531
9	0xbe27c758	-0.16384637
10	0x3d2acaae	0.041697197
11	0x3dc07521	0.093973406
12	0xbe29259a	-0.1651825
13	0x3d5620ce	0.05227738
14	0x3e09c6e9	0.13454784
15	0x3d922a50	0.07136977
16	0xbbe2af1f	-0.0069178487
17	0xbdab17cb	-0.083541475
18	0xbd829871	-0.06376732
19	0x3dd30885	0.10304359
20	0xbd6494dd	-0.05580603
21	0x3e0d8af6	0.1382254
22	0xbe3b40e9	-0.1828648
23	0xbc581002	-0.01318741
24	0xbdd450d3	-0.103669785
25	0x3cb7c117	0.02243094
26	0xbe477bee	-0.19480869
27	0xbdbee803	-0.093215965
28	0xbdbbaf8b	-0.091643415
29	0x3e18b5c6	0.14913091
30	0x3daac58d	0.08338461
31	0x3de3d909	0.111253805
32	0x3e28e684	0.16494185
33	0x3d790bbd	0.06080221
34	0xbd79ead3	-0.06101496
35	0x3e132ece	0.14373323
36	0x3dde3743	0.10850384
37	0x3c2efbc4	0.010680143
38	0xbedfdcab	-0.43723044
39	0xbb997117	-0.004682671
40	0x3e52e61f	0.20595597
41	0xbd1f485f	-0.038887378
42	0x3dbefe55	0.09325854
43	0xbdb2c027	-0.087280564
44	0xbdd96c4a	-0.106163576
45	0xbea11824	-0.3146373
46	0xbea6a88d	-0.3255047
47	0x3df301e3	0.11865594
48	0xbd6639a5	-0.056207318
49	0x3d4fd434	0.050739482
50	0xbe2358e5	-0.1595188
51	0xbdeda8b7	-0.116044454
52	0xbe213afe	-0.1574516
53	0xbbd3dea1	-0.0064657484
54	0x3b963a02	0.004584552
55	0x3d310497	0.043217268
56	0xbdea5f29	-0.114439316
57	0xbdca7d04	-0.09887126
58	0xbe3b5b20	-0.1829648
59	0x3c980126	0.018555235
60	0xbc26227b	-0.010140057
61	0x3dc395e8	0.09550077
62	0xbd47d35c	-0.048785552
63	0xbdf635aa	-0.12021954
64	0xbe670c6f	-0.22563337
65	0xbe4ad4a0	-0.19807673
66	0xbe23eed4	-0.16009074
67	0x3dd07939	0.101793714
68	0xbc8c2a02	-0.017109875
69	0x3e01fc61	0.12693931
70	0xbf1859ee	-0.5951222
71	0xbd17ac2b	-0.037029427
72	0xbe5b0e5c	-0.21392196
73	0xbe33f2e7	-0.17573129
74	0x3c5194ec	0.012791853
75	0xbdfa1a3d	-0.12212036
76	0xbd9ec57e	-0.077525124
77	0xbd82ce3f	-0.063869946
78	0xbd9a6683	-0.07539084
79	0x3d6badda	0.057538845
80	0xbda36e92	-0.07980074
81	0x3d06eef8	0.032942742
82	0xbe720185	-0.23633392
83	0x3e7b9138	0.24567115
84	0xbdf25c13	-0.11833968
85	0xbead9fde	-0.3391103
86	0xbe5dc0e3	-0.21655612
87	0xbf0cb769	-0.5496736
88	0xbd9d9771	-0.07694901
89	0xbccd2427	-0.025041653
90	0x3d2863b0	0.041110694
91	0x3e5bff67	0.21484147
92	0x3df03d4f	0.11730444
93	0x3e648e53	0.22319917
94	0xbe8aa773	-0.2708088
95	0x3da5622f	0.08075368
96	0xbe1f0fac	-0.15533322
97	0xbe1ca593	-0.15297537
98	0xbd8ba8ef	-0.06819331
99	0x3b13d8e2	0.0022559692
100	0xbdc07f90	-0.093993306
101	0xbd6088c7	-0.05481794
102	0x3d05d58a	0.03267435
103	0xbe41c70a	-0.18923584
104	0x3e394d54	0.18095905
105	0x3b767ac6	0.00376098
106	0xbca7a120	-0.020462573
107	0xbcf2e0f6	-0.029648285
108	0xbe8d5528	-0.27604032
109	0xbc23a84e	-0.009988857
110	0xbe17d551	-0.14827468
111	0x3e1eb5ae	0.15498993
112	0x3e1387eb	0.14407317
113	0x3d637abf	0.05553698
114	0x3e14b7e9	0.14523281
115	0x3d27e4cd	0.040989686
116	0x3d8ea8fc	0.06965825
117	0xbcb591ff	-0.022164343
118	0xbd3120af	-0.04324406
119	0x3e1c79d6	0.15280852
120	0x3d0001fe	0.0312519
121	0x3db7b893	0.089707516
122	0xbda2ae5e	-0.07943414
123	0x3d7c4f42	0.061599024
124	0xbe66fec5	-0.22558124
125	0xbe3e0f5a	-0.18560544
126	0xbe330b4e	-0.17484781
127	0x3baba951	0.00523869
128	0xbe56fa60	-0.20993948
129	0xbbcdb3f9	-0.006277558
130	0x3d48ac40	0.048992395
131	0x3db24148	0.08703858
132	0x3d516fea	0.05113212
133	0x3b479044	0.003045098
134	0x3daf1edd	0.085508086
135	0x3cef09b4	0.029179431
136	0xbce4ee2f	-0.027945606
137	0xbddccf90	-0.10781777
138	0x3dc85662	0.09782101
139	0x3c21563f	0.009847223
140	0xbd91fef4	-0.071287066
141	0x3b9dbcf9	0.004813787
142	0xbe1c487f	-0.1526203
143	0x3de890cc	0.11355743
144	0xbe56a0ff	-0.20959853
145	0xbe60e70c	-0.21963137
146	0xbe49658a	-0.1966764
147	0xbe2ab4de	-0.16670558
148	0xbe3af4f6	-0.18257508
149	0xbe20f32e	-0.15717766
150	0xbe268fce	-0.16265795
151	0xbe37c897	-0.17947613
152	0xbe3e015e	-0.18555209
153	0xbd2e928d	-0.04262023
154	0xbe1b4536	-0.1516312
155	0x3cdc809b	0.026916793
156	0xbd91bf8d	-0.071166135
157	0x3d866eae	0.06564079
158	0x3de882fe	0.1135311
159	0xbdb59e2b	-0.08868059
160	0xbd43c49c	-0.047794923
161	0xbeb5611b	-0.35425648
162	0x3dc41f68	0.09576303
163	0xbc98579d	-0.018596465
164	0xbd9945f3	-0.07484045
165	0xbdfe662b	-0.12421831
166	0x3c28a8c4	0.010294143
167	0xbe5d7c7e	-0.21629521
168	0xbe06fd28	-0.13182509
169	0xbd38b507	-0.045094516
170	0x3df3c733	0.119032286
171	0xbe10d18c	-0.14142436
172	0x3e30957b	0.17244522
173	0x3d8d73f9	0.06906886
174	0xbe113ff9	-0.1418456
175	0xbd1314e3	-0.03590859
176	0xbcb8de6c	-0.022566997
177	0x3d7b0d8e	0.061292224
178	0xbe16e6f4	-0.14736539
179	0x3a4b67fe	0.00077593315
180	0x3d0f2faf	0.034957584
181	0xbe353551	-0.1769612
182	0xbe09b261	-0.13446952
183	0xbd7301a1	-0.059327725
184	0x3d28b3e3	0.04118718
185	0x3df84946	0.12123351
186	0xbdd5d55d	-0.104410864
187	0xbe3e0e45	-0.18560131
188	0x3e22dd06	0.15904626
189	0xbe65b123	-0.22430854
190	0xbd8575bd	-0.065165974
191	0xbdec9c20	-0.11553216
192	0x3d59e2d3	0.053194832
193	0x3d9923d2	0.07477535
194	0xbe448a34	-0.19193345
195	0xbe96c2a4	-0.29445374
196	0x3c40f109	0.011776217
197	0x3e090bb8	0.13383377
198	0x3d91e273	0.0712327
199	0xbe4786d0	-0.1948502
200	0xbeec145d	-0.46109286
201	0xbd811629	-0.06303055
202	0xbd405689	-0.046957526
203	0xbd187b11	-0.03722674
204	0xbefb0a39	-0.49031237
205	0xbd15ade1	-0.036542777
206	0xbe7133ab	-0.23554866
207	0xbdcb5dd4	-0.09930006
208	0x3b2e2872	0.00265744
209	0xbe3ef918	-0.18649709
210	0x3da03628	0.078228295
211	0xbd49536b	-0.04915182
212	0x3e3a528c	0.18195552
213	0x3cde28f9	0.027119147
214	0x3e21e8c6	0.15811452
215	0x3db70519	0.08936519
216	0x3d171666	0.036886595
217	0x3db38f98	0.08767623
218	0x3c876918	0.016529605
219	0xbda29177	-0.079379015
220	0x3e55366e	0.20821545
221	0x3d1d0afb	0.03834055
222	0xbe35c630	-0.17751384
223	0x3bf39e95	0.007434676
224	0x3e0bae64	0.13640743
225	0x3dbb5b2a	0.091482475
226	0xbda42392	-0.08014597
227	0xbd628660	-0.05530393
228	0x3cb1a4c3	0.02168501
229	0x3df6780e	0.12034617
230	0x3d8eff34	0.0698227
231	0x3b524d76	0.0032089627
232	0xbe9ef485	-0.3104593
233	0x3d796585	0.060887832
234	0x3db3d41c	0.08780691
235	0x3ded3bae	0.115836486
236	0x3d04b013	0.03239448
237	0xbde4cf50	-0.11172354
238	0xbc940112	-0.018066917
239	0xbceb4b80	-0.028722525
240	0xbdc41563	-0.09574392
241	0xbdcecda8	-0.100978196
242	0xbdc4aa20	-0.09602761
243	0x3ddc823d	0.107670285
244	0x3dd6eddd	0.104945876
245	0xbe221be8	-0.15830958
246	0x3e00572b	0.12533252
247	0x3dc0e420	0.094185114
248	0xbdb764e0	-0.08954787
249	0x3e065a82	0.13120463
250	0xbd15015e	-0.036378257
251	0xbdf78628	-0.12086135
252	0xbd72dd7d	-0.05929326
253	0xbe88251f	-0.2659082
254	0xbda698dd	-0.08134625
255	0x3d955c7e	0.07293032

conv3.bias f4 [36]
0	0xbd499760	-0.049216628
1	0xbe37ab7b	-0.17936508
2	0x3e5b5c6e	0.21421978
3	0xbdf2b21a	-0.118503764
4	0xbe5e3c22	-0.21702626
5	0xbd14de4f	-0.036344822
6	0x3e5a6a1d	0.21329542
7	0xbc145ffc	-0.009056088
8	0xbc8ca9f2	-0.01717088
9	0xbdec3afb	-0.11534687
10	0x3e7b1a66	0.24521789
11	0xbd167284	-0.036730304
12	0x3df7dc0a	0.12102516
13	0x3c161d93	0.0091623245
14	0x3e4790a1	0.19488765
15	0x3ce2ff77	0.027709706
16	0xbdd37b36	-0.10326235
17	0x3deefe49	0.11669595
18	0x3e8d62ba	0.27614385
19	0xbe83c618	-0.2573707
20	0x3dc4bca0	0.0960629
21	0x3dc708a9	0.09718449
22	0x3e0c7bb0	0.13719058
23	0xbdc88b19	-0.09792156
24	0x3deabc3b	0.11461683
25	0x3d835efd	0.06414602
26	0xbd4ebc0a	-0.050472297
27	0x3ca2b962	0.019863788
28	0x3e1de24b	0.15418355
29	0x3c99127b	0.01868557
30	0x3da4bbec	0.08043656
31	0x3de49d0f	0.11162769
32	0xbd87dc77	-0.06633847
33	0xbd79007b	-0.060791474
34	0xbcb56a60	-0.02214545
35	0x3e33bf56	0.17553458
